Backup/Manual CNN/model_gray.npz (npz, 63290 bytes, 2 tensors)

W f8 [784, 10]
0	0xbf61b0624837c28a	-0.002159301717022115
1	0xbf7ae1d71000d861	-0.006563034141484265
2	0x3f27c6f996cf1229	0.0001814059900465831
3	0x3f7eb63356aeefd5	0.007497978726799877
4	0xbf668a6abbeff0b6	-0.0027515492106414364
5	0x3f68ff758f4bf6bf	0.0030514999474452183
6	0xbf852a60d8af63a5	-0.010334736454682256
7	0xbf933e410851dc5f	-0.018792167790220634
8	0xbf75bb04da69b9c0	-0.005305308301656486
9	0x3f691c2ace7598ec	0.0030651889862155415
10	0xbf5f0c7e8e891987	-0.001895068731884915
11	0x3f869425af9e3c51	0.011024755880297972
12	0xbf5356bd47627273	-0.001180348246214849
13	0xbf767186b42f3fdb	-0.005479360758684461
14	0xbf829725aff0df28	-0.009077352935591046
15	0xbf5ce27bf9a5ec3a	-0.001762982434768258
16	0xbf6db99b7eaff26a	-0.003628543568537081
17	0xbf6ad9f2ef033847	-0.003277754287501575
18	0xbf642694df8cdac8	-0.002459803360035682
19	0xbf8ec8b034dcb8db	-0.015031220067239939
20	0x3f7a409256248efc	0.006409236552176397
21	0xbf7b58cfe6f6c8f1	-0.006676494710904133
22	0x3f7b21c03adfcb6c	0.006623984239911045
23	0xbf6b2324d2b1264e	-0.003312656326248476
24	0xbf9084fd0ea447a8	-0.016132310885104723
25	0xbf8d1c5ba5448f70	-0.0142142448244795
26	0xbf9021bb2137a10d	-0.01575367346041028
27	0x3f8fac479b9aaafe	0.015465316234743561
28	0xbf693f3a3d9d4f3e	-0.0030819070351898728
29	0x3f8afe6eef08517b	0.013180605573361195
30	0xbf689c3655443341	-0.0030041752999125097
31	0xbf7e49f8a1948009	-0.007394763198391282
32	0xbf58f6a31646cf25	-0.0015236466070804391
33	0xbf7a63947abdec5a	-0.006442623136417936
34	0x3f5224cbd1d619e8	0.0011074057032104349
35	0xbf83c28ea4a8a938	-0.00964843215941312
36	0xbf8014b4e0fc1f79	-0.007851994625084778
37	0xbf773e1bc596c152	-0.0056744656407519845
38	0x3f2724fcaeb6a573	0.00017657837393629145
39	0x3f7a8ed596521518	0.006483873677216388
40	0x3f81958399158f29	0.008585956677684319
41	0x3f807863535b66f0	0.008042121869425739
42	0x3f780a99348db2d6	0.005869482477333951
43	0xbf7e810a0cc18537	-0.007447280175342733
44	0x3f69ab5660da71bf	0.00313345785873606
45	0xbf8b32f57de83231	-0.013280790238263314
46	0x3f7e5c56e7affa47	0.0074122805335706315
47	0xbf7f2b4807fe5ca4	-0.007609635707829163
48	0x3f9591c39c485ec7	0.02106385842679861
49	0x3f7f72c9012a6d05	0.007677827047383849
50	0x3f57e256bfef91f3	0.0014577719846268183
51	0xbf647f8bb779db01	-0.0025022248117311245
52	0xbf96d69e5cd03f1c	-0.02230308000076696
53	0x3f73278f585353f5	0.00467639917515771
54	0xbf8a2df0a75388ca	-0.012782936197656265
55	0xbf921f8e8fcd98c9	-0.017698504950566716
56	0x3f80bab730cefc5a	0.00816863172246778
57	0x3f7da2e4df5af9c8	0.007235425980694328
58	0xbf81119216417712	-0.008334294609251756
59	0xbf8d4b3c6ffff9ed	-0.014303657691923067
60	0x3f807372fde4411a	0.008032701848180102
61	0x3f83569083b5653c	0.009442452449251897
62	0x3f9ee88f737c8db5	0.030184022353876922
63	0xbf7f649501ad79f3	-0.007664281899308001
64	0x3f7480c2e4747cda	0.005005608843276133
65	0xbf72ac17c3e31173	-0.00455865176462954
66	0xbf69e207e1d0050d	-0.0031595376917726904
67	0x3f6fa4d13ea2d9d3	0.003862770730019374
68	0x3f824f140dc47f8f	0.00893989245429319
69	0x3f9e9a624f4ca3e4	0.029885803308534423
70	0x3f72688b8def889f	0.0044942332596936965
71	0xbf849c8be25bd59e	-0.010064213605327773
72	0x3f4564d06da0141e	0.0006528871265351099
73	0x3f70e5c0384e901e	0.004125357493567376
74	0xbf305aaf241ecda8	-0.0002495458212436693
75	0xbf94a64700e67ea9	-0.020165547780946955
76	0x3f79bb996c7bfd51	0.006282424270238466
77	0xbf7135635ea95bce	-0.004201305545016033
78	0xbf43c59762777ef7	-0.0006033887083809188
79	0xbf722c2e3492b605	-0.004436665048314752
80	0x3f69ab431a11574a	0.003133421953445491
81	0xbf785632e7398711	-0.005941580620488344
82	0x3f8c4e05c006a04d	0.013820691034951116
83	0xbf720830a49092e1	-0.00440234185319774
84	0xbf6cd8908de04d90	-0.003521234829358462
85	0x3f40fc511dac73bd	0.0005183597635071074
86	0x3f730c93c74555f1	0.004650666484243158
87	0x3f807f887660310e	0.008055750000516084
88	0xbf958a6ad570a5bc	-0.021035832669587626
89	0xbf9fe5400dd0f2e7	-0.031147957652353588
90	0xbf81346d3f9814e4	-0.00840077734302231
91	0x3f59db6477432790	0.0015781861412045052
92	0xbf65d1e80b1a1708	-0.00266356774301613
93	0xbfa106ffd4a201ef	-0.033256525713117095
94	0x3f83117bcd6c8ebf	0.009310691076798048
95	0x3f5126f1c366ca38	0.0010468827218629417
96	0xbf751ac62272226a	-0.005152486765958567
97	0x3f638fd9b0e8874e	0.0023879291322978285
98	0x3f919b0fd06423ca	0.017193076223552407
99	0xbf628f1fd2ec3095	-0.002265512615286689
100	0x3f708405616e344c	0.004032155054017283
101	0xbf771669f059143c	-0.005636609862965488
102	0x3f7bd19791e7833b	0.006791679449151651
103	0xbf6aeea1522181c4	-0.0032876158521022176
104	0x3f3cb004c934107f	0.00043773762554644846
105	0x3f91c99d0a626a7b	0.017370656737151862
106	0x3f5914369c076009	0.0015306981368805614
107	0x3f629e334bfaa547	0.0022727014437193024
108	0x3f8f26ca639287d0	0.01521070591326526
109	0xbf601d95ab79cc7c	-0.0019672320593656072
110	0xbf818dde5a2c9421	-0.008571374060531824
111	0xbf4c8eb88c9afedc	-0.0008715058440529016
112	0x3f60c2c33ac0740f	0.002045995051970901
113	0x3f83ec175d9bedb9	0.009727652115080742
114	0x3f55e14e8399ba75	0.0013354555834685065
115	0x3f74fd7f06d0945e	0.0051245653130865525
116	0xbf81f20ab321f297	-0.008762439338391643
117	0xbf71c2f59081e4ca	-0.004336318241365331
118	0xbf8261e5815c74c2	-0.008975785265244677
119	0x3f97a94222373f47	0.023106606806151644
120	0xbf730fdd334e1738	-0.004653801025488673
121	0xbf9114a6e464d927	-0.016680343332347605
122	0xbf72315711b7cc50	-0.0044415856495901435
123	0x3f6cefbcc24636ac	0.003532284421629969
124	0xbf4faa5070756c7e	-0.0009663479585627769
125	0xbf8a4d8885fdfbd6	-0.012843195523371802
126	0x3f7dd67477f0ad3b	0.007284598307744357
127	0xbf80af147b26a30f	-0.008146438606517785
128	0x3f7b0905a7e2044d	0.006600401013316559
129	0x3f78721ae8d7c47b	0.005968194117927368
130	0x3f7356d03811e771	0.004721463542517999
131	0xbf8bc0349967ae91	-0.013550196582364367
132	0x3f852dfc96030fdc	0.01034161885070966
133	0xbf3318bc39db07eb	-0.0002913913284424685
134	0x3f73cfc0bb451ea0	0.004836800439370542
135	0xbf801538328a8cd1	-0.007852973024745332
136	0xbf7ddcb4257680fd	-0.007290557572020126
137	0x3f8f6c42b719f384	0.015343209469614434
138	0xbf80213ad13bbc72	-0.00787588072804921
139	0xbf632624e6bb48a0	-0.002337524483530265
140	0x3f37ea061696858b	0.0003649010528424471
141	0xbf8a98dddca41c73	-0.012986882491999396
142	0x3f95c0abd2343434	0.021242794709042737
143	0xbf73f49aa523e4de	-0.004871944506015439
144	0xbf1f2d97689c024c	-0.00011893498063032213
145	0x3f8d6e0eec8f1cb7	0.01437007579251169
146	0x3f6f6309e913e513	0.0038314050258320214
147	0xbf91faa847acb1fb	-0.017557744383497092
148	0xbf817264cc3d680b	-0.008518969996362832
149	0x3f70221de146c95f	0.003938786238381147
150	0xbf8239bd51024a5b	-0.008899191889473792
151	0x3f7bbb4b3a9cde7b	0.006770414221868411
152	0x3f500bfe8a0a9769	0.0009794221624956584
153	0x3f714bf2a8d8a109	0.00422282017601839
154	0x3f7ad0a96af0759d	0.00654665163804449
155	0xbf89b59566e60036	-0.012553374483786777
156	0x3f854715c6fe0dba	0.010389490256563206
157	0xbf70c0a2743d4bd9	-0.0040899606572848074
158	0xbf6c74d4fe1c2faa	-0.003473678590017533
159	0x3f7c200f68578ae1	0.006866512475854875
160	0x3f90e4d3d4494ef5	0.016497907478266922
161	0x3f692d994853df5b	0.0030735009955797205
162	0xbf648e34a4856c4d	-0.0025092151810617636
163	0x3f8266d046214b33	0.008985163822364228
164	0xbf752213aac2825b	-0.00515945131715564
165	0xbf861c00f61db307	-0.010795600424637465
166	0x3f8648d487cccef8	0.010881100076950187
167	0x3f73ca8f0c0bdad5	0.004831846978723593
168	0xbf839e460933b9a6	-0.009579226642441107
169	0x3f710462ce50a11a	0.0041545734029926566
170	0x3f6c303c73f885de	0.0034409695361012757
171	0x3f7a29f674f1a1d8	0.006387675020143445
172	0xbf8c033f44c8ba08	-0.013678068434356497
173	0x3f83a6f6898ce00d	0.009595800469114147
174	0xbf86d50e1c309cf8	-0.011148557887351349
175	0xbf7b533f2f2060fe	-0.006671187222331064
176	0x3f81f146c038f939	0.008760979405562185
177	0xbf80d15f15f4ce01	-0.008211844308426032
178	0xbf7c4864ab379fe7	-0.006904977071350494
179	0x3f8a9311c2e27dd0	0.012975825080785791
180	0xbf4bdf048d8d659c	-0.0008505604010721648
181	0xbf88f903bb0139cd	-0.012193707603867754
182	0xbf79773b77d73720	-0.0062172244046914404
183	0xbf95378cf367e9a8	-0.020719721180265133
184	0x3f821f914eb7af38	0.008849272932785021
185	0x3f84deb825ccb891	0.010190428403430015
186	0xbf8a00fba98d36ff	-0.012697187530331442
187	0x3f5d594659e24390	0.0017913043043657796
188	0x3f8e337fa83a10b3	0.014746663400054016
189	0x3f86de430abacebf	0.011166118397660239
190	0xbf684238dabfcef5	-0.0029612646521800464
191	0x3f4efe75389fb119	0.0009458610886645984
192	0x3f55cb01b45cf995	0.0013301388402876303
193	0x3f87b03466fa57c3	0.01156655253661743
194	0xbf84d4d3535eaa5c	-0.010171557409042346
195	0x3f94cd69cf07497b	0.020314839612021168
196	0xbf9aec5787cc1757	-0.026292197860150548
197	0xbf710f73da67c9a8	-0.0041651273263475855
198	0xbf8a478f9ae68435	-0.012831804194151622
199	0xbf67e5532c59ed2c	-0.0029169678189739003
200	0x3f8fd1e2b6ff9c35	0.015537043771429374
201	0x3f86bd34ed8d97e8	0.011103070735497725
202	0x3f80c72b07118ed5	0.008192382958618275
203	0x3f739196f2fc4a78	0.004777516980328238
204	0x3f7247e513381a2a	0.004463095497618622
205	0xbf7208082ba497bf	-0.004402191081942008
206	0x3f7f11ab3f47eafb	0.0075852097838786615
207	0xbf8a8ecd1826798c	-0.012967684077747753
208	0x3f70b283de8eace3	0.004076495279984746
209	0xbf8c7786e1f321b0	-0.01389985444110739
210	0x3f6e2a7d1b12210c	0.0036823695632543004
211	0x3f95d08ad8d890e1	0.0213033385135909
212	0xbf92792e3592fd63	-0.01804039194098318
213	0xbf825029e585498b	-0.008941962544359658
214	0xbf50c56192dbb3b3	-0.0010236218326398038
215	0x3f771459defc1180	0.005634642657018296
216	0x3f76df298b636b7e	0.005583917887828414
217	0xbf8245e2a5a1b0de	-0.008922358207393118
218	0x3f71d5678194bbf8	0.004353908844946901
219	0x3f8f9a6f4c370217	0.015431279672044202
220	0xbf84a6c040b441a0	-0.010083677267659408
221	0x3f7588e8599f2bcf	0.0052575184035487795
222	0x3f9d0ae9630779d2	0.02836193720747266
223	0x3f7d50a96b68f0b5	0.007157003207393033
224	0xbf8266d7c6689831	-0.008985219709824662
225	0xbf800a76aae4f368	-0.007832457628518433
226	0xbf8a5daa32346816	-0.012873963982702501
227	0xbf822000c4069537	-0.008850103361349155
228	0x3f906195b43f7e65	0.015997256399599275
229	0xbf52ae29d72c7a5a	-0.0011401566122867441
230	0x3f9126cdc92f588c	0.01674958744464354
231	0xbf839caf336a8608	-0.009576195484728892
232	0xbf869f237a7c148e	-0.011045720267711692
233	0xbf88220321392653	-0.01178362317218099
234	0xbf54b46a7f37785b	-0.001263717652242777
235	0xbf92444bb0550d83	-0.017838652265039123
236	0x3f77aa9c12eeb47f	0.0057779404295789085
237	0x3f9a98bf3d1c4f7c	0.0259733086632674
238	0xbf94ac0fab960af3	-0.0201876114347312
239	0x3f810b398f0d10aa	0.008322190931388047
240	0x3f61526717788f0f	0.00211448798269654
241	0xbf919c78b106639a	-0.01719845371698945
242	0xbf63d1bac81211a3	-0.0024193428112672818
243	0xbf701e8b800b30cc	-0.003935379908124936
244	0x3f402d686e390532	0.0004936942972976531
245	0x3f80a6dffb217816	0.008130788661386428
246	0x3f5e5f0f4e8a6a49	0.0018537187080826126
247	0x3f94934278887aca	0.020093000990636857
248	0xbf716c51b42365d1	-0.004253691821042919
249	0x3f87e4372d66303e	0.011665755341503933
250	0xbf79ee4f6c0f74e3	-0.006330785982723716
251	0x3f88de998b582b24	0.012143325390771738
252	0x3f5b945e978f8f85	0.0016833232641539641
253	0xbf91ae5f082cc7b5	-0.01726673591037527
254	0xbf959d809a4b56f2	-0.021108636300445967
255	0x3f82015b2b85668c	0.008791649118097732

b f8 [1, 10]
0	0xbfaa2c18340734f7	-0.051117664671986356
1	0x3fbb88ba35f43e70	0.10755504433859087
2	0xbf9b704e5d360bb1	-0.026795601309924148
3	0xbf9c2f70998e40b7	-0.027524718639654746
4	0x3f9ea83b3d528339	0.029938626878563943
5	0x3fabdd44324eeb8e	0.05442250360598343
6	0xbf8e4ba2f59efbeb	-0.014792702790030495
7	0x3faa5250e409a26b	0.05140927108442813
8	0xbfbbf1d24dba572e	-0.10915865323690063
9	0xbf8c8a8862921016	-0.013936105259070113
