Manual CNN/model_color.npz (npz, 188730 bytes, 2 tensors)

W f8 [2352, 10]
000000 c8 53 9a 3a fe 64 9b bf 68 9f 40 de dc 0b 71 bf
       -0.02675244553264003 -0.004161703840544685
000010 9a 8f 10 a1 db 94 7c bf 8c da 23 73 c8 e6 86 bf
       -0.006977899481203221 -0.011182371152682856
000020 e9 1d 81 c3 6f 80 8e bf e5 2f 4c 3b 2c 0b 91 bf
       -0.014893410829372082 -0.016644183272589336
000030 77 55 87 9a e4 61 36 bf 76 b9 cf 00 02 07 72 3f
       -0.00034152823584795246 0.004401214432603209
000040 b5 bb 38 cf f5 fd 90 3f d6 5a 80 fc a7 61 73 bf
       0.01659378125458107 -0.004731804081550014
000050 77 2b b9 98 76 b9 95 bf 80 2c 6a a1 21 9b 76 3f
       -0.021215298720828692 0.005519038552516453
000060 fd f3 fc 2e 1e 69 93 bf 4c 27 e5 d7 38 9a 72 3f
       -0.018955680482793714 0.004541608852670919
000070 70 72 01 ab a2 5b 8a 3f 4e 10 36 06 6b ab 91 bf
       0.012870093196562155 -0.017255470518208242
000080 d5 db ac d8 6c 3b 72 3f 95 5d 6a 89 5b 80 6c 3f
       0.0044512035190597725 0.003479174406787864
000090 b5 0d 1a d6 13 a5 80 3f 91 f0 de dd a2 ab 73 bf
       0.008127360316627067 -0.0048023569087797405
0000a0 ad 88 82 b0 af db 6d 3f 4b c6 df ab 93 d5 82 3f
       0.003644793647326136 0.009196427996332043
0000b0 49 d0 08 7b bb e9 57 3f de c8 8a 07 09 f0 8b bf
       0.0014595347275987594 -0.013641424696605172
0000c0 f1 af d6 86 cd e0 68 3f 7a d2 75 49 f8 0d 91 bf
       0.003036881846773192 -0.016654853328378107
0000d0 51 05 bf 8a cf b2 5b bf 9b 06 74 de 12 95 69 bf
       -0.0016905810143586673 -0.0031228416952451938
0000e0 4c 01 d6 02 dd 7c 72 3f 1b c8 9d 7b 50 ee 70 3f
       0.004513610195658945 0.004133524309382987
0000f0 ce 9e da 35 a6 a8 81 bf f7 3f e5 ba 3e 85 79 3f
       -0.008622454184048858 0.006230587996768114
000100 8e 87 64 94 cf f3 62 3f 1f fd 68 15 de 3e 5b bf
       0.0023135237016881976 -0.0016629380021553964
000110 21 0d a4 49 1d 26 48 3f 4a a0 ec 1b b5 51 64 bf
       0.0007369654661321426 -0.0024803674017626386
000120 dd 62 01 ac a4 a9 72 3f 9c 60 b6 d5 9c 72 55 3f
       0.004556315660089819 0.0013090640630704425
000130 7d 42 9c 5c e5 bd 83 bf 33 be 49 2f 96 fa 8a bf
       -0.009639541519875333 -0.0131732686215563
000140 e5 07 7f c8 cb 5a 51 3f 0e 9a 03 c6 6c 5b 81 3f
       0.0010592451162527658 0.00847516040125831
000150 96 8d 7c 20 58 ac 78 3f f3 98 59 36 4b 03 84 3f
       0.006023735280709449 0.009771907421236103
000160 8e 40 89 1c ac 96 93 bf de fe 63 eb 54 4c 88 bf
       -0.019129456750591127 -0.01186434119563223
000170 51 e1 b4 44 de eb 7a bf c0 07 37 78 32 f4 81 3f
       -0.0065725977286138085 0.008766550344151969
000180 8c 6d 1a 89 d7 b7 87 3f 7c b5 83 47 42 db 71 3f
       0.011581119414862305 0.004359492210125434
000190 fa 47 75 97 9b 56 66 bf 5e 4d 49 57 8b cc 87 bf
       -0.0027268446826065303 -0.01162060604216347
0001a0 6a 1b c8 f3 01 b6 5f bf 8e 8b 86 8b 3f 74 77 3f
       -0.0019354838433416018 0.00572609731935615
0001b0 09 5d 06 d0 f0 1b 6e 3f c7 05 be 22 9d b0 91 bf
       0.003675432526687343 -0.017275290723324035
0001c0 e9 81 e4 fe 7f 6d 86 3f 2e fa d5 37 44 0e 65 bf
       0.010951042143063599 -0.00257027934884426
0001d0 50 68 30 53 02 26 81 3f d8 1e 9a f3 a4 d5 71 bf
       0.008373277820329289 -0.004354137746879615
0001e0 f1 e9 cc 3f 58 34 6f 3f 1f 28 7e 54 7b 7e 7e 3f
       0.003809139596709026 0.007444841154105957
0001f0 8a bb 14 12 43 2e 80 3f d2 a7 49 4d 1e 57 87 3f
       0.007900737752235338 0.011396633847841207
000200 4e 2f db 7a 31 db 83 bf 84 ba 3b 2c 78 4e 81 3f
       -0.009695421754620927 0.008450449800389899
000210 18 fd 64 70 0c 68 52 3f 73 0f 9d 4a 88 bc 92 3f
       0.0011234399294862193 0.01829731898693816
000220 a0 71 a4 84 fc 2c 75 bf 01 ed d4 14 af 2d 58 bf
       -0.005169855498277448 -0.0014757356432955617
000230 23 66 78 1c 41 cc 88 bf 36 62 44 b9 36 03 89 3f
       -0.012108334237427581 0.012213161019233625
000240 96 f9 04 40 b0 4d 94 3f 37 e8 9d 04 3f 68 7e bf
       0.019827608020244712 -0.007423635639378693
000250 64 2d 59 06 06 9f 6f 3f d0 82 c9 5a 20 5c 5b bf
       0.0038600080177155095 -0.0016699138606314674
000260 04 0f af 64 ed 87 8a 3f 57 aa 96 bd b0 1d 8e bf
       0.012954573283316069 -0.01470506743028925
000270 2e d9 21 2a 6e 3b 73 bf 6f ad aa 78 d5 73 80 3f
       -0.0046953490547052956 0.00803343557830402
000280 2d 9b 0a 5f ec 59 7a bf 11 65 44 27 02 6c 60 bf
       -0.00643341381570543 -0.0020046274240824798
000290 d7 9d c4 a0 87 26 8f 3f 4c 17 c4 b2 8c dd 8b bf
       0.015210208505393048 -0.01360616608190992
0002a0 7c d6 59 76 75 37 71 bf d3 b0 91 3a 07 c3 86 3f
       -0.00420328029359995 0.0111141743420479
0002b0 15 b8 c3 6f b0 30 87 bf 01 c7 46 fa 5d d2 77 bf
       -0.011323336039335921 -0.005815856075445104
0002c0 9a 77 a6 ed fc 94 57 bf c0 48 6e a9 7f 22 7b bf
       -0.0014393301013124527 -0.006624697379168321
0002d0 0c d0 5a 32 56 eb 89 bf 08 4f c3 97 ed 8a 99 bf
       -0.012655900394158003 -0.02494403113162405
0002e0 75 7a 6c 6f f9 4f 85 bf cd 99 cd 0c 4e 20 8b 3f
       -0.010406445229418563 0.013245210424156629
0002f0 64 1c ff ce d9 6b 82 bf 13 26 24 ee f9 06 62 3f
       -0.008994771604092296 0.002200592179296698
000300 3f 88 d7 09 fb 4b 93 3f be 09 f5 38 e5 fe 64 bf
       0.01884453055925683 -0.0025629498483407944
000310 82 59 70 81 79 73 91 3f 77 b6 01 5b 97 42 46 3f
       0.01704206326038494 0.0006793250122549406
000320 04 21 de 35 ca 05 56 bf 9e a2 e9 3e bc 58 81 3f
       -0.0013441538535250994 0.00847003046983846
000330 39 d5 a5 60 c1 ad 51 bf 17 3b 49 73 d5 46 84 bf
       -0.0010790241672940638 -0.009900729733229903
000340 52 b5 3c d4 53 01 7a bf aa a8 c3 92 75 fb 3a 3f
       -0.006348922211868073 0.00041171665613027686
000350 6a 96 ad 8e 6e 1b 7c 3f 22 9c eb 39 dc a7 50 bf
       0.006862098564715072 -0.0010165835043893863
000360 93 a4 b2 d7 4c cf 7e 3f 6e 48 03 33 a7 d6 78 bf
       0.007521915594375222 -0.00606408416952507
000370 27 d8 0b d6 fa 2d 56 3f 8f 06 3f a1 c5 a7 85 3f
       0.0013537358828990072 0.010573905928939168
000380 3f 96 3b 90 6e 7b 78 3f 4a 65 9c de a2 50 90 bf
       0.0059770888217137155 -0.015932602727024382
000390 24 42 cc 9a c5 83 5c bf 91 a5 78 b9 9b 8a 6c 3f
       -0.0017404012425609261 0.0034840623373113074
0003a0 ed ff f3 09 93 78 65 bf 1a 72 3a b1 f1 10 69 3f
       -0.0026209709027398193 0.0030598373940178393
0003b0 70 12 5a 5d 6c 59 5b bf 9c c9 0c d7 6f db 6b bf
       -0.001669269394740127 -0.0034005340934523797
0003c0 ed 36 aa 46 01 fd 82 bf 5f b0 fe 96 56 44 88 3f
       -0.009271631211301446 0.011849094851491935
0003d0 48 31 34 bc 9b b9 7e bf 5a 79 11 5f 90 7b 5a bf
       -0.007501228657258281 -0.0016163740040365444
0003e0 15 b9 df ed b8 b4 91 3f 52 4d 08 2c 3c 37 8f bf
       0.01729096366755652 -0.015242071241152875
0003f0 e0 e8 1e a8 5c 72 7e 3f 9c b9 33 96 49 31 81 bf
       0.0074332827952565406 -0.008394789596846412
000400 33 95 86 2c 22 01 7d bf 7b e7 63 7e fe c9 94 bf
       -0.007081159107120971 -0.020301796402214727
000410 a7 5b 11 40 99 31 6e bf 45 d0 89 e0 4f be 64 3f
       -0.0036857598466144173 0.0025321540927567853
000420 e8 9b 93 02 bb e4 88 bf 65 ee c0 da 28 2c 8d bf
       -0.012155018821841737 -0.014244383979636408
000430 09 22 8c e6 b5 72 6d 3f 8d 79 fc 7f 68 06 87 bf
       0.0035947373147602363 -0.011242691427068486
000440 bd 20 5e 4c 08 8e 73 3f c8 07 c4 f5 1b 19 8f bf
       0.004774124541548183 -0.015184610784220967
000450 f5 a2 59 12 b0 df 88 3f ed 40 8d d3 23 8a 61 3f
       0.01214540058136169 0.00214106557215398
000460 50 82 a2 25 8a fc 60 3f 25 e1 34 c8 c8 7f 7b bf
       0.0020735452827269976 -0.006713661484632182
000470 18 73 b3 ea ec 14 81 3f 18 c9 12 dc a8 a5 82 bf
       0.008340693390374507 -0.009105033126932713
000480 80 c8 af 0d ff 29 82 3f 4c 15 af ce bb af 6f 3f
       0.00886916409033156 0.003867976008651885
000490 f1 3a 52 90 1b 5d 90 3f 7a 47 f7 93 ee 5b 74 bf
       0.015980177577655522 -0.004970485635071737
0004a0 7e 7b d0 c8 44 b5 7c bf de cd b8 30 c7 89 77 bf
       -0.007008808793243724 -0.005746629798113882
0004b0 5f 86 4b 47 86 6b 81 3f 53 75 bb 9c 5f 38 85 bf
       0.008505868006469073 -0.0103614301401033
0004c0 ff 9c 2a 61 37 64 9e bf e8 69 8e c2 1f 44 81 bf
       -0.029679169946260405 -0.008430717587363426
0004d0 fb 8e 37 5c 4f df 7e 3f b1 05 d4 a6 4d b2 25 bf
       0.007537183762426509 -0.00016553113838572783
0004e0 16 da 46 42 96 41 87 3f f1 7c 9c 45 0c e9 82 3f
       0.01135556592713009 0.009233566164367409
0004f0 ee fa 1d df 18 da 72 3f ef 46 3f 21 b3 6e 75 3f
       0.004602524904724998 0.0052325246105782005
000500 c3 2c 1c 0e ef 4b 93 3f 09 f9 c9 5f 43 98 8b bf
       0.018844351993760677 -0.013474012718913035
000510 4c 58 39 86 1f 89 89 bf ad e3 4b 5f 2a 6e 7c bf
       -0.01246857288712646 -0.00694099952374298
000520 d7 f0 87 86 f0 5f 85 3f 36 9b db 9e ce ab 80 3f
       0.010436896424828408 0.008140196059185461
000530 fa 5c c2 57 43 60 74 3f 4a 3c e8 b8 37 fd 69 3f
       0.00497461610588989 0.0031725014043853294
000540 fe ca 58 62 ce 17 60 bf a7 f3 f8 6c 4c 35 6e bf
       -0.0019644766751069067 -0.0036875240982951643
000550 8a e8 e7 42 63 c2 82 bf bb 58 28 bc 21 56 7f 3f
       -0.009159827689462458 0.0076505010388442886
000560 1a e8 f2 02 12 3c 68 3f e5 9a e4 15 bb 2c 77 bf
       0.002958331278560611 -0.0056578929927926
000570 2f e9 0b 82 89 06 61 3f 07 48 87 c6 80 69 89 3f
       0.0020783124640476806 0.012408262308699859
000580 5c ef 8e a3 41 5a 7f 3f d8 af fd fe 7a 12 80 3f
       0.007654434587433059 0.007847748667437246
000590 e7 10 c2 86 a9 1e 94 bf 9a 51 69 16 19 8c 81 bf
       -0.019648217058162578 -0.0085679969753663
0005a0 da 2e bf 0d de d3 84 bf da d7 99 03 42 7a 88 3f
       -0.010169729990500743 0.011951938376323957
0005b0 7f 78 e9 ef 40 35 8e 3f 2f a5 79 b3 ca 54 90 3f
       0.014750010797055289 0.015948455051703888
0005c0 5a 44 93 88 92 d6 8b 3f dc 4d d1 7e 9e 5a 7f bf
       0.013592858117052287 -0.007654780504782601
0005d0 80 6b da 3d ab 64 78 3f ee 3d 13 63 dc e3 53 bf
       0.005955380356364226 -0.001213994237605816
0005e0 b4 dc 07 fc 6e 37 92 3f 1a 90 df f7 13 48 7f 3f
       0.017789587147458888 0.0076370983133280616
0005f0 c7 4d e7 84 a6 6e 9e 3f bb e8 20 1c be e2 68 bf
       0.02971897302798057 -0.0030378068049944063
000600 7c e9 cc 81 b6 1a 72 bf 65 42 64 09 fb a2 78 3f
       -0.004420006673905848 0.006014805423789048
000610 5a e0 ca d4 de f1 8f 3f e5 61 5e aa 55 e5 92 bf
       0.01559804999247676 -0.01845296718929203
000620 60 bc 6f fa 42 42 7b bf 2e 1a e9 2b fc 54 7d 3f
       -0.006654988893372765 0.007161126179716022
000630 ff a4 94 ba 9d aa 80 bf 17 9e 60 67 7a fb 5d bf
       -0.008137924438943232 -0.0018299765920434302
000640 9f 51 3f 37 80 25 8e 3f 4a bc 16 72 47 fe 60 bf
       0.014719964681639662 -0.002074374716094539
000650 48 3a cd 96 6b c3 5b bf 31 e3 2f 8d aa b9 74 bf
       -0.00169454104180357 -0.005059877602428029
000660 8a 39 42 6b 61 2a 92 3f ae 1b 0b 2d d8 6c 97 bf
       0.01773979394106954 -0.022876146077375807
000670 80 f5 b5 f0 98 b2 78 3f ce 98 dd bb 45 34 66 bf
       0.006029698775248504 -0.002710472296644096
000680 64 c2 d9 ee 97 50 6b 3f 5e 7c cb fb cb 0c 72 bf
       0.0033343284074407887 -0.004406735239825014
000690 e2 4b 26 95 c9 fe 93 bf a4 82 32 f8 5f 2f 7b bf
       -0.019526624420517787 -0.006636977082195603
0006a0 12 1d 0d 70 fb 18 96 bf 61 53 ca a2 b1 6d 62 3f
       -0.021579674448074355 0.0022495717478911302
0006b0 c2 30 1d 8d 94 f9 70 bf ca d3 ec a9 4f ff 73 3f
       -0.004144268301228661 0.004882155596352919
0006c0 c2 8a 7e bb d8 56 83 3f f6 0d bb c6 67 87 5b bf
       0.009442990514633268 -0.001680232376131905
0006d0 60 ce 1f 32 7b 36 45 3f f0 3d b3 d0 10 c9 51 bf
       0.0006473638097745475 -0.001085535451057381
0006e0 3c b8 d7 c2 03 d6 88 3f a5 df b6 55 b9 27 87 bf
       0.012126950629831261 -0.01130623619870603
0006f0 57 df 47 f3 0f 4b 6c 3f e4 34 dc 4d 70 00 6c bf
       0.00345376124664291 -0.0034181779327640983
000700 c9 2a 18 9b 84 33 75 3f 4a 0b 28 d1 cc a1 85 bf
       0.005176084510376718 -0.010562515385577637
000710 3a 81 89 ad a0 2f 8e bf ae c2 36 9c 3a 14 8b bf
       -0.01473928002923285 -0.013222177402753967
000720 53 1d 99 e7 53 3d 5e 3f 01 e6 3c 13 d2 1d 70 bf
       0.0018456763631478814 -0.003934689146086524
000730 d4 4e 41 fb ab ed 63 bf 48 e7 7b 01 c1 d9 67 3f
       -0.002432666684436183 0.002911450352141385
000740 95 b5 5c 96 02 85 58 3f f4 24 12 10 16 50 51 bf
       0.0014965558306799566 -0.0010566916901402741
000750 c4 32 f2 d8 fd b1 50 3f d8 66 aa 8e 3a 23 6e bf
       0.0010189990023576215 -0.0036789077469848545
000760 13 9f 0d c4 08 dc 82 3f c3 6e c1 4d b1 eb 61 bf
       0.009208744509762867 -0.0021875822986155715
000770 e0 25 2b f8 ff 33 94 bf 29 5d 7c d9 97 62 80 bf
       -0.01972961380196192 -0.008000551533355509
000780 b8 54 cd 11 d6 f2 70 3f 78 97 6b 98 bd 19 32 bf
       0.0041378366557484544 -0.00027619246286147243
000790 84 af 5f b7 fc 7b 54 bf 49 0b d3 af d8 49 88 bf
       -0.0012502639706281913 -0.011859600892767512
0007a0 56 99 1d 05 c8 02 4d 3f 11 eb a8 5a aa a5 7b 3f
       0.0008853413257668234 0.00674978775583203
0007b0 b5 b6 76 07 f1 fa 74 bf 3c 01 66 eb 51 fe 85 3f
       -0.005122128982674991 0.010738983150759489
0007c0 e4 dd 85 2c a6 26 74 3f 27 a9 87 40 7e f9 81 bf
       0.0049196711701066966 -0.008776651710793516
0007d0 18 70 bb 3e 06 be 55 bf f1 21 85 47 05 fe 68 3f
       -0.001327043627433083 0.003050813971786186
0007e0 53 ab 88 d4 be 7d 2c bf 45 92 43 ac 51 0e 6a 3f
       -0.00021737055273382075 0.003180655972857135
0007f0 4c ff 8d 2a af 59 90 bf 21 3c 65 8c 83 4d 58 bf
       -0.015967118236857744 -0.001483324494603762

b f8 [1, 10]
000000 80 68 c8 1e ba ca 9e bf c1 8a c2 96 81 80 ad 3f
       -0.030070217255435683 0.05762104955035375
000010 e3 92 51 2f ba 51 88 bf 2f 94 f9 1e f9 b2 94 bf
       -0.011874632424402736 -0.020213978305396004
000020 db 9d 0e 31 ef 81 91 3f 36 4e a6 83 e8 f9 ac 3f
       0.017097222680289775 0.056594148703109345
000030 6a 20 04 7c 8f 0b 7c bf 8f e5 e5 91 f3 f2 a2 3f
       -0.006846962438665208 0.037009822425669296
000040 e7 b2 e0 90 b4 0e b6 bf d9 00 7b 23 c8 f0 8a bf
       -0.08616188561490966 -0.013154567320612308
